Chatbot/chatbot_model.pth (torch, 64541 bytes, 6 tensors)

fc1.weight f4 [128, 52]
000000 47 c6 26 3d 27 33 26 3d b2 93 49 3d 76 c9 a3 bd
       0.040716436 0.040576126 0.04921312 -0.0799741
000010 8a 2d 13 bc c3 3b a7 ba b0 5a 2f bc eb 55 9f bc
       -0.008983025 -0.0012758899 -0.010702774 -0.019450149
000020 3c 3a f0 bd 35 8e 12 3e 83 5c ff bb 53 a2 5a 3e
       -0.11729857 0.1431206 -0.0077930107 0.21350984
000030 f8 e3 d5 3c 4f d0 3b 3e 86 c6 e0 3d b8 c7 ee 39
       0.02610968 0.18341182 0.10975365 0.000455437
000040 38 ef b4 bd 82 d1 3f bd 3c db a2 3d e1 7f ac 3d
       -0.0883469 -0.04683066 0.07951972 0.084228285
000050 12 50 71 3d 0e 2b 4b bd ec c7 44 bd 65 3b 40 3c
       0.05891425 -0.049601607 -0.048042223 0.011732911
000060 31 eb 6a 3d 6a 1a 08 3e c8 28 8a bd d6 f8 bd bd
       0.057353202 0.13291326 -0.0674606 -0.09275977
000070 7e 3b 9a bd 8c 81 66 3e bf e8 cf bd 88 d2 eb bd
       -0.075308785 0.22510356 -0.10151815 -0.11514765
000080 5d d6 b5 bd ce dc 47 3e 2f fc c8 3d 1c b2 bc bd
       -0.08878777 0.19517824 0.09813725 -0.09213659
000090 df 78 64 bd 27 1f 40 3d bc de 1c 3d d4 92 5b 3e
       -0.055779334 0.04690471 0.038298354 0.21442729
0000a0 35 9e 36 bd c6 68 f1 3d ee 16 e6 bd a5 73 f5 bc
       -0.04458447 0.11787562 -0.11234842 -0.02996237
0000b0 e4 28 4f bd 88 93 2d 3d a7 92 3b 3d 14 5b 54 bd
       -0.050576106 0.042377025 0.045794155 -0.05184467
0000c0 78 2f bf 3d 25 d9 b3 bc cd 36 c8 3d 0f 53 3a 3d
       0.09335226 -0.021954129 0.097760774 0.045489367
0000d0 0b 79 18 3e 61 be b2 3d 38 57 88 bd ea 72 5a 3d
       0.14889924 0.08727718 -0.06657261 0.053332247
0000e0 40 a6 86 3d ec 3c e8 3d 2e d8 e8 39 b5 fb 31 3e
       0.065746784 0.11339745 0.00044411555 0.17381175
0000f0 c9 97 a7 bd d5 61 28 3e 80 f2 04 be f7 58 ee 3b
       -0.081832476 0.1644357 -0.12983131 0.007273789
000100 7c 32 85 bd 41 c9 de 3d c6 f1 b3 bd 6c da 88 bd
       -0.0650377 0.1087823 -0.08786349 -0.06682286
000110 f3 4e 55 bd b9 20 86 3d db 33 12 3d 8b e0 2c 3d
       -0.052077245 0.0654921 0.035693984 0.04220633
000120 02 b4 8a bd a7 a6 d2 3d 1c d2 d8 3d 4c c4 25 3e
       -0.06772615 0.10285693 0.1058695 0.16188163
000130 b4 07 87 bc 87 27 c6 bd 8c b8 fe 3d 9f 5e 0a 3d
       -0.016483165 -0.09675508 0.12437543 0.033781644
000140 8e d0 16 3e 69 4c 57 3d e1 7f bc 3d 79 1b 4c 3e
       0.14727995 0.052563105 0.092040785 0.19932355
000150 62 dc 96 3c 6d c5 92 bd a1 9b c9 bd 6e bf e3 3d
       0.018415634 -0.07166562 -0.09844137 0.11120497
000160 60 7e 00 be 86 a5 10 3e f8 2b 3a 3e ad 2a 06 be
       -0.12548208 0.14125642 0.18180835 -0.13102217
000170 a3 10 51 3e ec 82 39 bd 58 e8 ea 3c d0 4b e6 ba
       0.20416503 -0.045290872 0.028675243 -0.0017570201
000180 5b bd 2d 3e 1a 31 42 bb 65 13 f7 bd a9 ee 8b bd
       0.16966765 -0.0029631318 -0.12064246 -0.0683263
000190 c3 5d 0c 3e be 35 81 bd a8 ab cc bc 24 eb 20 bd
       0.13707642 -0.06309079 -0.024984196 -0.039286748
0001a0 5e 0a 88 bc b6 fe 26 bd e7 1b 07 bd 38 58 cc 3d
       -0.016606506 -0.040770255 -0.032985594 0.09977764
0001b0 6c 61 c4 bc 3c 46 36 3c bd bf 9e 3d b4 c6 8b bc
       -0.023972236 0.011125144 0.07751415 -0.017062522
0001c0 c2 b2 25 3e 0b dc 0b 3c eb 2a b1 3d de 04 8d 3d
       0.16181472 0.008536349 0.08650764 0.06885694
0001d0 ae ab e4 bd 58 10 33 3d 90 df 46 bc 1a a0 e7 bc
       -0.11165558 0.04371676 -0.012138262 -0.028274585
0001e0 8b a6 9b bd 5c 0c f5 3b f8 50 c1 bc 60 59 1b 3c
       -0.07600125 0.00747828 -0.02359818 0.009481758
0001f0 12 02 c9 bd 10 79 49 bc 56 94 dd bd c6 72 f7 3d
       -0.09814848 -0.01229693 -0.108193085 0.12082438
000200 a3 0a 1b ba 72 23 a7 bd 44 37 ed bc a4 45 76 3e
       -0.0005914366 -0.081610575 -0.028957017 0.24050003
000210 5f f5 e5 bd 37 9e e5 bd 40 e3 f3 3c a3 0d b7 3d
       -0.112284414 -0.11211818 0.029771447 0.08938148
000220 f0 25 6b bd 7c 02 95 3d ab 26 10 3e a0 af 9a bc
       -0.057409227 0.072758645 0.1407725 -0.018882573
000230 f0 79 07 be d2 32 fe bd c8 8e 73 bd fc fa 8f 3d
       -0.13230109 -0.12412037 -0.05946234 0.07030293
000240 d6 e2 10 be d7 30 27 bc 59 96 87 bd 99 8e 10 3e
       -0.14149031 -0.010204515 -0.066204734 0.14116897
000250 89 ca 0f 3c bf 80 f5 3c e0 83 71 3b aa 5f 62 3d
       0.0087763155 0.029968617 0.0036852285 0.055267014
000260 61 48 3c bd e5 ce fe 3c 78 4a b7 3d fa 5d 17 be
       -0.045967463 0.031104514 0.08949751 -0.14781943
000270 2a 2c b2 3d a6 b7 66 bd 74 a6 30 3d 60 36 bb 3b
       0.0869983 -0.056327485 0.043127492 0.005713269
000280 55 92 27 3e 04 12 f3 bd b6 db af bd d2 63 ac bd
       0.16364415 -0.118686706 -0.085868284 -0.08417477
000290 50 c5 c6 bd 69 d6 ed 3d 94 7e 46 bd a3 a2 19 be
       -0.09705603 0.11613161 -0.048460558 -0.15003447
0002a0 0a 14 0b 3e cc 05 f6 bc ea bc 6b bd 97 b0 0a be
       0.13581863 -0.030032061 -0.05755321 -0.13543926
0002b0 00 10 7a 3c 20 d2 91 3c b3 49 14 3e e0 7e 54 bc
       0.015262604 0.01780039 0.14481239 -0.0129697025
0002c0 14 47 06 be 03 1d e5 bd 6e 9e 9c bd 64 b4 56 bd
       -0.13113052 -0.11187174 -0.076474056 -0.052418128
0002d0 a2 6b 01 3d dc 14 04 3e 9d 3a 0a 3e 1d 84 89 3c
       0.031596787 0.12898582 0.13498922 0.01678663
0002e0 41 54 98 bd f4 ce 15 3d b0 bd 63 3d 92 d5 9a 3d
       -0.07437945 0.03657432 0.055600822 0.075602666
0002f0 0c d3 d7 bc 3e fa 0e bc e6 38 62 3c 60 89 22 bc
       -0.026345752 -0.008726655 0.013807511 -0.009920448
000300 48 82 ed bc f4 7c 9e bc b4 47 cc bd b9 db b6 bd
       -0.028992787 -0.019346692 -0.09974614 -0.089286275
000310 db ec 07 be b3 33 aa bd c0 d2 06 3e 6c 8f 16 bd
       -0.13273947 -0.08310642 0.13166332 -0.03675787
000320 73 b4 e2 3d 88 17 f3 bc b4 65 e0 bd ec bd 93 3d
       0.11069574 -0.029674307 -0.10956898 0.07213959
000330 c5 64 e4 3c bd d9 01 be ad 77 4c 3d 5a 97 34 3e
       0.027880082 -0.12680717 0.04991882 0.17635861
000340 75 3c ce 3a f5 6c 63 bc c2 d8 f5 bd 05 f6 fc bd
       0.001573457 -0.013880958 -0.12004234 -0.12351612
000350 45 b7 dc 3d cc 19 d4 3c 8e 77 72 bd 72 f6 af bd
       0.107771434 0.025891207 -0.059196047 -0.085919276
000360 37 12 93 bd 33 0f 37 be ba 8e f9 bd f4 00 01 be
       -0.071812086 -0.17876892 -0.12185426 -0.1259802
000370 f9 66 b7 3d cf 3a 48 3e a1 7c 1d be 57 d5 4a bc
       0.08955187 0.19553684 -0.15379573 -0.012379966
000380 fd 53 63 bd 56 46 2c be e5 bc ee 3d ab d6 0a bd
       -0.05550002 -0.16823706 0.116571225 -0.03389613
000390 eb 6a 23 3e 2c fd c0 3c 93 50 84 3e 90 8f 11 3e
       0.15958755 0.023558222 0.25842723 0.14214921
0003a0 13 38 26 be f1 d6 34 bd c3 f6 90 3c 47 91 81 bd
       -0.16232328 -0.044150297 0.01769579 -0.063265376
0003b0 c2 d8 57 3d 7b f2 80 bd 6f 56 37 3e 8a d5 ac bd
       0.05269695 -0.062962495 0.17904066 -0.08439167
0003c0 99 aa c0 bb 73 99 fc bd 46 38 13 be a5 fc b7 3d
       -0.005879712 -0.123339556 -0.14376935 0.08983735
0003d0 a3 c3 9a bd de 68 2d be e3 17 1e 3e 43 84 c6 3c
       -0.07556846 -0.16934535 0.154388 0.02423299
0003e0 47 df 29 3e c4 22 fc 3c 33 4d 19 3e ac 0c 60 ba
       0.1658908 0.030778296 0.14970855 -0.000854681
0003f0 2b 75 95 ba 9b 2d 49 bd a8 1f d7 bd 72 06 66 3e
       -0.0011402717 -0.04911576 -0.10504085 0.22463396

fc1.bias f4 [128]
000000 5a 43 3f 3d 71 39 1c 3e 82 ec 43 3c 54 4d d4 bc
       0.04669509 0.15256287 0.011958243 -0.02591578
000010 94 e1 87 3e af bc ed 3d f6 e5 f7 3d 41 95 aa bd
       0.2653929 0.11608254 0.121044084 -0.08329249
000020 95 d5 0f 3e a1 32 01 3e 0c 66 1f 3e ef 76 b8 3d
       0.14046319 0.1261697 0.15566272 0.0900706
000030 2a 62 51 3e 6b 5f 86 bc 69 60 e9 ba 95 fd 83 3d
       0.20447603 -0.01640292 -0.0017805222 0.06444851
000040 ea 39 11 3e 9d fb 55 3e 8c f8 87 3c 23 93 b8 3d
       0.14182249 0.20896764 0.016598009 0.09012439
000050 b0 eb d5 3d 42 c1 5a 3d 7f 5a 3c 3e 92 8e e7 3c
       0.104453444 0.05340696 0.18393897 0.028266225
000060 30 4b 14 3e 03 ce a8 3d b5 e2 05 3e ca b8 a1 3d
       0.14481807 0.082424186 0.13074763 0.07896574
000070 c0 6c 33 3e 80 cb 5f 3e 77 7d 0f 3e 35 b5 00 3e
       0.17521954 0.21854973 0.14012705 0.12569125
000080 cc cd 87 3e 91 76 32 3e 3f af a6 3d e9 69 98 3c
       0.26524198 0.17428042 0.08138894 0.01860519
000090 55 ce 19 3e 40 ca 5e 3e e9 7e e9 3d 5f 0d 14 3d
       0.15020116 0.2175684 0.11401159 0.036145564
0000a0 32 8f 8d 3e fb ca 67 3e 49 28 6d bd 2b 13 4d 3e
       0.27648312 0.22636025 -0.057899747 0.20026843
0000b0 b0 de b3 3d cc fe 23 3e 23 d2 fa bb e0 d2 ab bc
       0.08782709 0.16015166 -0.007654445 -0.020974576
0000c0 62 24 85 3d 26 53 06 3c f9 44 e4 3d 96 2c 1d 3d
       0.0650108 0.008198535 0.11145968 0.0383726
0000d0 84 fb c6 3d 6a 70 4e 3e 5a 7e 72 3d 24 9f 6a 3b
       0.097159415 0.2016007 0.05920253 0.0035800422
0000e0 0d 8a ae 3d 35 c2 c2 3d 15 b5 ef 3d 43 87 8c 3e
       0.08522425 0.09509698 0.117044605 0.27446947
0000f0 46 e6 a7 3d 0d e5 78 3e cf 1b 06 3e c9 79 ab 3d
       0.08198218 0.24306126 0.13096546 0.08372838
000100 74 2f f5 3d 26 3c bd 3d c1 3e ad bc 26 cd a0 bb
       0.119719416 0.09239988 -0.021148087 -0.004907268
000110 4c e6 a0 3d 55 09 f5 3d 0f 13 3e bd 11 4d 38 3e
       0.07856426 0.119646706 -0.046404894 0.17998149
000120 ba e9 44 3e e4 12 0c 3e f3 0f 7e 3e 92 36 f4 bc
       0.19229785 0.13679081 0.24810772 -0.029811177
000130 0f f0 49 3d 93 0b 28 3e 07 12 01 3e 90 bb 99 3c
       0.049301203 0.16410665 0.12604533 0.018766195
000140 84 b7 de 3c 4f 47 28 bd 8c c5 e7 3d 07 62 11 3e
       0.027187116 -0.04108363 0.11316976 0.1419755
000150 01 d5 9f 3d ba a2 ad bd 02 50 b3 3d db 32 cd 3d
       0.07804299 -0.08478303 0.08755495 0.100194655
000160 d1 af 2b 3d 6e 31 5a 3d 72 d9 0a 3e 25 91 a7 3d
       0.04191572 0.053269796 0.13559511 0.08181981
000170 e5 51 79 bd ca f6 01 bd c6 ac 82 3d 51 e5 eb 3d
       -0.060869116 -0.031729497 0.0638061 0.11518348
000180 f6 62 fe 3d 51 e8 12 3c ca 04 39 3e a3 15 6b 3d
       0.12421219 0.008966521 0.18068233 0.05739368
000190 1b 06 ff 3d 43 da dd bc 79 19 19 3e 18 35 61 3d
       0.124523364 -0.027081614 0.14951123 0.054982275
0001a0 86 66 00 3e 42 e9 d3 3d 0e 88 f7 3c 94 1b fd 3d
       0.1253911 0.10347225 0.030216243 0.12358776
0001b0 5c 91 3f 3e 31 d5 f8 3d d7 e1 86 3e 2f c0 1c 3e
       0.18707794 0.12150038 0.26344177 0.15307687
0001c0 c5 d9 ad 3d c6 f7 80 3c 70 94 1e 3e e0 c8 26 3e
       0.08488802 0.015743148 0.15486312 0.16287565
0001d0 6b 9a 56 3e aa 32 e2 3b d6 3f 1b 3e 43 aa 06 3e
       0.20957343 0.0069030123 0.1516107 0.13150887
0001e0 f7 6c f9 3d 3a 02 28 3e 0a 68 b2 3d 39 bc 94 bd
       0.121789865 0.164071 0.0871125 -0.07262463
0001f0 cc b3 13 3e 8c d0 e5 bb 01 78 3b 3e 93 66 85 3d
       0.14424056 -0.007013386 0.18307497 0.06513705

fc2.weight f4 [64, 128]
000000 c3 98 a9 bc 79 36 1b 3d 89 24 98 3d bf a6 eb bd
       -0.020702725 0.037893746 0.074288435 -0.11506414
000010 ab dc 85 3d 36 73 29 3e b0 6e 81 bd 8a e1 8e bc
       0.0653623 0.16547856 -0.0631994 -0.01744153
000020 12 a5 d4 3b 16 3c 47 3d 3b e8 e9 3d c0 38 08 be
       0.0064894045 0.048641287 0.114212476 -0.13302898
000030 21 5d 53 3d 42 e6 18 3e 43 5c 51 3e 56 23 93 bd
       0.051602487 0.14931586 0.20445351 -0.07184474
000040 63 47 3a be 82 45 49 bd 9b 00 2f ba 73 dc b6 bd
       -0.18191294 -0.049138553 -0.00066758104 -0.08928766
000050 bb 02 86 3d 2b 36 70 3d 6f bd fc 3d 0f a2 51 3d
       0.065434895 0.05864541 0.12340819 0.05117994
000060 e4 8a 26 bd d8 65 98 bd a0 74 f3 bd ee 3b 43 3d
       -0.0406598 -0.074413 -0.11887479 0.047664575
000070 35 49 b7 bd e2 38 de 3d 31 4e e2 bc c3 3f ef 3c
       -0.0894951 0.10850693 -0.027625175 0.029205209
000080 9e 59 ec 3b 09 3b fc 3d 69 fd d7 3d 8b 9c 3c 3b
       0.0072128316 0.123159476 0.10546381 0.002877983
000090 91 7a 74 3d 7a 5a cf 3d 97 37 36 bd 23 71 8e 3d
       0.0596872 0.10124679 -0.04448661 0.06955173
0000a0 c3 bd 9d bd 8b e4 a5 3d 10 ce 94 3d 5e 81 05 3e
       -0.0770221 0.08100232 0.07265866 0.13037631
0000b0 44 0f c0 bb 94 37 9f 3d 36 a3 d1 3d c8 19 6a bd
       -0.005861195 0.077742726 0.10236208 -0.057153493
0000c0 ec d4 8f 3c ea 51 dd 3c 3a 93 b8 bd 46 bd 75 3d
       0.017557584 0.027016599 -0.09012456 0.05999496
0000d0 a6 26 cc 3c ef 82 03 3e 35 8f 88 3c 54 3c 09 3d
       0.024920773 0.12842916 0.016669849 0.0335048
0000e0 eb f5 ba bd ce a7 c0 3d 6c 80 ab 3d 80 97 b6 bc
       -0.091289364 0.09407006 0.08374104 -0.022289038
0000f0 00 0a 2e 3d 9d 29 e0 bc be fd 7a 3d 94 de 10 3e
       0.042490005 -0.027363593 0.061277144 0.14147407
000100 8a 28 f2 ba 29 93 27 3d 36 1e 36 3d 6f 80 96 bd
       -0.0018475216 0.040911827 0.044462405 -0.073487155
000110 c4 90 d5 3d 6f 84 e1 3d f1 54 83 3d d6 45 9e ba
       0.104280025 0.11011588 0.06412686 -0.0012075256
000120 cc 96 8d 3d a2 0d bd bc 7b fe c9 3d 8e a7 2a 3e
       0.06913528 -0.02307779 0.098629914 0.1666548
000130 08 19 1e 3e fc 6c 59 3e 6f 8d c5 3d 1c 35 e8 3d
       0.15439236 0.2123298 0.09646117 0.11338255
000140 6e 25 18 3d e2 6c 20 3e 8e a8 20 be 0b 3a 89 3c
       0.03714507 0.15666535 -0.15689299 0.01675131
000150 c2 84 50 3d dc 2d 04 bd c0 df 88 3d 2c 48 f6 bb
       0.050907858 -0.032270297 0.06683302 -0.007515928
000160 bb 92 00 3b 60 8d e7 3d cd 68 f8 bd 43 76 14 be
       0.0019618708 0.11306262 -0.12129364 -0.14498238
000170 19 da f1 3d 61 2d 32 bd cc cd 24 3d 34 18 20 3d
       0.11809177 -0.043500308 0.040235326 0.039085582
000180 5e 9f 6a bd 8c eb 92 3d 0f be 3f 3c e1 44 75 bd
       -0.05728089 0.07173833 0.011703028 -0.05988014
000190 81 53 80 3c 15 b8 34 3c b5 55 85 bd 21 6d af 3c
       0.015664818 0.011030217 -0.06510488 0.021414341
0001a0 ff b2 f6 bc 38 eb 8a 3d cd c4 fb bd 47 38 b4 3c
       -0.030114649 0.06783146 -0.12293396 0.021999491
0001b0 4d 2c f3 3d c4 22 86 3d 12 76 86 bd fc 12 56 bc
       0.11873684 0.065496 -0.06565489 -0.01306605
0001c0 6f 33 16 3e 52 94 c2 3c 9e 4c 15 be 51 4a cc 3c
       0.14668058 0.023752365 -0.14580008 0.02493778
0001d0 d7 39 a7 bd 2c 6e 75 bd 52 4d 19 be bc 72 dc bb
       -0.08165329 -0.05991952 -0.14970902 -0.0067275446
0001e0 78 18 43 3d 1c a5 34 bd fe d8 04 be d1 0c 5a bd
       0.047630757 -0.044102773 -0.12973401 -0.05323488
0001f0 ac 7d c3 bd 4d f2 c2 3d 40 a8 e8 bc 8f 24 91 bb
       -0.095454544 0.095188715 -0.02840054 -0.004429407
000200 98 31 30 3d c3 1f ff 3d 58 bd bb 3d cf 74 17 3d
       0.043016046 0.1245723 0.09166974 0.03697663
000210 b6 1a cb 3d 73 18 d9 3d bc 4b 44 bd e6 7f 22 bd
       0.09917204 0.106003664 -0.04792379 -0.039672755
000220 cf c9 09 3e 10 6a 68 3d 3b d2 b0 3c 5c 4f be bd
       0.1345589 0.056741774 0.02158462 -0.0929248
000230 75 e1 01 3d ed 2e f3 3d e8 65 25 3e 13 cc b6 bc
       0.031709153 0.11874185 0.16152155 -0.022314107
000240 e9 2c 8c bd 8c f9 93 bc a9 af 0b 3d a8 37 12 bd
       -0.068445034 -0.01806333 0.03410307 -0.03569761
000250 1e 42 ab 3c a6 31 9b 3d 98 78 07 3d b6 fc 14 3e
       0.02090555 0.07577829 0.03307399 0.14549527
000260 b9 5b 1e 3d 0e 0e d1 3c ae 66 c0 bd 29 2f 8d 3d
       0.038661692 0.025519397 -0.093945846 0.06893761
000270 40 87 6c bc bf c7 9c 3d b9 e2 68 bd 8b 48 d4 3d
       -0.014436543 0.07655286 -0.056856845 0.10365399
000280 7f cf 26 3c 31 eb 18 bb 02 11 b5 bc 17 81 81 3d
       0.010181307 -0.0023333544 -0.022102837 0.0632345
000290 e9 9f 91 bb c7 32 c5 bc 9d 54 34 3d db 85 8d bd
       -0.0044441116 -0.024072064 0.044026006 -0.069102965
0002a0 63 5e 97 3b 22 2e 79 ba 42 e8 25 bd 3d 13 2e 3d
       0.004619406 -0.00095054705 -0.0405047 0.042498816
0002b0 28 58 ee ba 4a 98 1d 3d 81 3b 1f bd 89 cb 9b 3d
       -0.0018184232 0.038475312 -0.038875107 0.076071806
0002c0 f0 48 c7 bc 94 00 31 3c 73 84 1b bc d2 ad 95 bc
       -0.024326771 0.0108033605 -0.009492028 -0.01827136
0002d0 98 f6 c5 bc 07 a2 d3 bc fd c7 0a 3e 4a 7a b4 3c
       -0.024165437 -0.025834097 0.13552852 0.022030968
0002e0 0f b2 d3 bd d9 e8 4a 3b 74 c2 f3 3d ac 07 8e bc
       -0.10336696 0.0030961542 0.11902323 -0.017337643
0002f0 7d 18 88 3c 46 75 af bd 07 b6 79 3d 5b 33 96 3d
       0.01661324 -0.0856729 0.06096461 0.07334014
000300 5c a0 99 bc 24 34 bb 3d b2 7e 27 3e 10 1f 15 bd
       -0.018753223 0.091408044 0.16356924 -0.036406577
000310 4d 1b 02 bb a4 6a 25 3e 6d 1d ee 3d af ec 71 3d
       -0.0019852698 0.16153961 0.11626706 0.05906361
000320 71 3d cc bc 56 d3 3a 3a c1 e0 c8 3c e9 5d 37 3e
       -0.024931641 0.00071268284 0.024521234 0.17906918
000330 16 f9 60 3d 42 d6 0b bd 82 81 a3 3d 64 51 41 3d
       0.054925047 -0.03413988 0.07983686 0.04719676
000340 5f ea 2d 3e e3 3c 6c 3d 4a 18 a7 3c d0 32 e8 bd
       0.16983937 0.057675254 0.020397324 -0.11337817
000350 26 22 cc 3b 42 c5 2d bd 8b b3 da bb fe 79 25 bd
       0.0062296567 -0.042424448 -0.006674235 -0.040399544
000360 29 84 0e bd 29 95 cc bc 57 64 a3 bd b7 b5 7d bd
       -0.034794006 -0.024973469 -0.07978123 -0.061940875
000370 4f 27 bf 3c 01 8e 54 bd f0 f0 80 3d 2f 43 0f 3e
       0.023334173 -0.051893238 0.06295955 0.13990472
000380 99 60 72 bd 87 13 9c bb c3 b7 96 3b f5 1a a8 bc
       -0.059174154 -0.00476307 0.004599543 -0.020520667
000390 ac 91 b5 3c 7b 11 18 bd 02 e1 a0 bd 3d da 36 3d
       0.022164188 -0.037126046 -0.07855417 0.044641722
0003a0 51 8e a0 bd 60 35 c9 3d 1e 69 c2 bd 62 18 93 3d
       -0.07839645 0.098246336 -0.09492706 0.07182385
0003b0 a4 a4 ca bd 2e b9 91 bc e3 10 0c bd 3c c6 82 3c
       -0.09894684 -0.017788496 -0.034195792 0.015963666
0003c0 0f af 0d 3e 9a 4b 15 3e f4 4e 2d bd c3 53 44 bd
       0.13836311 0.14579621 -0.042311624 -0.047931444
0003d0 fc b6 ba bd 2e d7 79 bd f7 9f c1 bd 40 dc f3 3d
       -0.09116933 -0.060996227 -0.09454339 0.11907244
0003e0 60 4d d1 3c cd 4b c2 bd 4f 8a 69 bd 0e 69 39 bd
       0.02554959 -0.09487114 -0.057016667 -0.045266204
0003f0 07 8b 8e 3b ef a5 60 bc 71 1e c6 bd bb 05 88 bd
       0.0043500694 -0.013711437 -0.09673775 -0.06641718

fc2.bias f4 [64]
000000 7a 6f 0a 3e d6 74 cd 3d 26 a9 5e bc 03 86 40 3d
       0.13519087 0.1003205 -0.013590133 0.047002804
000010 de 6f b3 3d 2e 7a 29 bd c6 87 1f bd ec e2 83 bc
       0.08761571 -0.041376285 -0.038947843 -0.016099416
000020 48 f4 1c bc 65 7d 12 3d 69 ec 98 3d f6 c0 ad 3c
       -0.009579726 0.035764117 0.07466967 0.021210175
000030 ef ae ba 3d 31 b4 1f 3d 16 36 51 bc 79 35 1c 3d
       0.09115397 0.038990203 -0.012769243 0.038136933
000040 1e ac 01 3e 63 63 ac 3d db 21 ba 3d 75 47 94 bc
       0.12663314 0.08417394 0.09088489 -0.01810048
000050 0a ef d5 3c ba ca 3d 3d ff c6 f6 3c ff 1d 7b 3d
       0.02611496 0.046335913 0.030124186 0.061307903
000060 9c 2a d3 3d c1 f9 ce 3d 5c 5a 89 3d 62 83 47 bc
       0.103108615 0.101062305 0.06706688 -0.01217732
000070 9e 42 c7 3d 96 e3 81 bd e3 53 15 3d f0 ff e2 3d
       0.09729503 -0.06342237 0.036456954 0.110839725
000080 61 08 ef 3d 1a 80 ba 3d 04 e5 d4 3c 61 47 a5 3d
       0.1167152 0.09106465 0.02598811 0.08070255
000090 d4 65 eb bc 61 5b d5 3d 2e 18 21 3e 7e e0 d3 3b
       -0.028735079 0.1041782 0.1573188 0.0064659705
0000a0 30 27 eb 3b e4 82 95 bc 09 64 9e 3d a0 72 d5 3d
       0.0071763024 -0.01825089 0.07733924 0.104222536
0000b0 07 42 10 3e 50 7f 0e 3c c4 2d 0f 3e 37 5e a7 bd
       0.14087687 0.008697346 0.13982302 -0.08172267
0000c0 6a 52 2d 3d 56 81 c6 3d 67 4c 8d 3d ea 74 9a 3b
       0.042314924 0.096926376 0.06899338 0.0047136443
0000d0 a4 f6 86 bb e6 5b c2 3b a3 2f 2f 3c 38 37 f9 3d
       -0.0041187573 0.0059313653 0.01069251 0.12168735
0000e0 14 a4 bb 3d 09 25 46 bc 73 f3 40 3d 12 fc e0 3d
       0.09162155 -0.012093791 0.04710717 0.109855786
0000f0 20 7f 96 3d cf 61 14 bd 10 4c 2d 3d 49 04 c3 3d
       0.07348466 -0.03622609 0.042308867 0.09522302

fc3.weight f4 [5, 64]
000000 6d bb a9 3d 71 60 c1 bd 86 7e 25 be 6b 0d 4c bd
       0.08287702 -0.09442223 -0.16161546 -0.049817484
000010 ab ee be 3d a5 ce 14 bd b1 97 18 bd 7a 13 96 3d
       0.09322866 -0.036329884 -0.03725404 0.073279336
000020 f4 89 67 3e d0 1b a1 bd c0 81 5d be a2 4e 80 3d
       0.22611219 -0.07866633 -0.21631527 0.06264998
000030 e7 e3 00 be d7 a0 5b 3e 9a 70 3d 3e ca 61 e0 3d
       -0.12586938 0.21448074 0.18499985 0.10956152
000040 80 eb 62 3e 63 d8 cb bd 6e 08 32 3d 6a cd 13 be
       0.22160149 -0.09953382 0.04346507 -0.14433828
000050 15 c1 eb bd d4 e6 61 be f2 fa 9c 3d 99 5d 06 3e
       -0.11511437 -0.2206071 0.076650515 0.13121642
000060 de 5a d6 3d 33 4a 61 bd 73 38 ba bc df 90 da bd
       0.1046655 -0.055002403 -0.022731995 -0.10672163
000070 d5 98 49 3d 77 9b a5 bd f6 01 a0 3d ba dd c6 3b
       0.049218018 -0.08086293 0.07812874 0.0060689123
000080 c9 12 df 3c 9d 79 44 bd 4c 41 7e be 57 dd 4c 3d
       0.027230637 -0.047967542 -0.24829596 0.050015774
000090 52 5f 35 3c 36 a7 64 3e 28 74 19 bd d7 6a b6 3d
       0.011070089 0.22329411 -0.03746429 0.08907097
0000a0 55 ad 9f be d7 dd 91 be 09 e7 4f 3e f7 d4 9d 3c
       -0.3118693 -0.28489563 0.20302977 0.019266589
0000b0 5a 3f 6c 3e 4c b0 79 3e 4f 9b d5 3d 81 d7 5d 3c
       0.23071042 0.24383658 0.104300134 0.01354015
0000c0 4d 2c 2e bc f0 5f 89 3d b7 10 23 be c1 16 8e be
       -0.010630679 0.06707752 -0.15924345 -0.27751735
0000d0 4f b0 94 bc 82 f6 50 be 18 ae 13 3c ca f7 56 3e
       -0.018150477 -0.20406535 0.009013675 0.20992962
0000e0 99 ce cf 3d ac 74 93 be 94 27 d4 3d 8f 0d 19 3e
       0.10146827 -0.2879995 0.103591114 0.14946578
0000f0 2c d5 44 bd 15 d0 9d be a1 00 43 3d 02 e7 36 be
       -0.04805486 -0.30822816 0.04760802 -0.1786156
000100 57 3e 0a be 43 29 81 be c8 3f 99 3e 35 29 83 3e
       -0.13500343 -0.25226793 0.29931474 0.25617376
000110 40 76 8d be 89 5c 89 be 0f f1 97 be 36 5e 39 be
       -0.2762928 -0.2682841 -0.296761 -0.18102345
000120 ea 1b e7 bd 35 dd 18 3e fe 81 9f bd 1c cd b5 3d
       -0.11284621 0.14928134 -0.07788466 0.08877012
000130 57 6e 5f bd bd 21 2f be d8 76 87 be 6f 59 cb 3c
       -0.054548588 -0.17102714 -0.26457858 0.024822919
000140 19 e8 40 bc f6 1c 3c 3e 6c 29 7a be 6f b4 02 3e
       -0.011774086 0.18370423 -0.24429864 0.12764142
000150 fa dc 3b be 9a 22 24 be 50 8b 5c bd 33 e8 2f be
       -0.18346015 -0.16028824 -0.053843796 -0.1717842
000160 bf c0 4f 3e 17 06 59 3e 56 af 6f be 1b 41 95 be
       0.2028837 0.2119373 -0.23406729 -0.29151234
000170 6c 42 2b 3e ce ff 0c 3d 98 89 21 be 7d eb f4 3d
       0.16724557 0.03442364 -0.15775144 0.11958978
000180 17 7b 07 3e 04 d2 3a be b5 f6 97 bd ec a4 35 3e
       0.13230549 -0.18244177 -0.074201025 0.17738694
000190 3f 81 9e be 7a b5 89 be f2 0f 07 3e f0 19 00 bc
       -0.30957982 -0.26896268 0.13189676 -0.007818684
0001a0 28 a7 85 3d 6d d3 c6 3d e7 09 8c 3d 11 b9 36 3e
       0.06526023 0.09708295 0.06837826 0.17844035
0001b0 73 74 9d bd 45 bf 66 be f7 98 ff 3d 45 fb 97 bd
       -0.076882266 -0.22533901 0.124803476 -0.07420973
0001c0 76 51 d9 3d cf 08 3a be a7 8e 09 be dd 32 45 3e
       0.106112406 -0.18167423 -0.13433324 0.19257684
0001d0 8b 75 a5 bd ed c7 0c be 0f c1 8d 3d d6 11 28 be
       -0.0807906 -0.1374814 0.06921589 -0.16413054
0001e0 16 a7 36 be 67 9f dd bd bb a0 38 3e 62 9e 33 3e
       -0.17837176 -0.10821419 0.18030064 0.17540887
0001f0 b9 2f f6 bd 94 eb cf bd bd 89 41 be 07 f5 47 3e
       -0.12020821 -0.10152355 -0.18900199 0.19527064
000200 df 56 59 be a8 b4 a2 bd 6d 12 45 be 3d ab 85 be
       -0.21224545 -0.07944614 -0.1924531 -0.26107207
000210 50 ed c6 3d 84 4e 0e 3e f3 5b 0e 3e 1b 38 0c be
       0.097132325 0.13897139 0.13902263 -0.13693278
000220 d5 9d fb 3d d0 a2 17 3e f9 c5 49 3e 8e 07 46 be
       0.122859634 0.14808202 0.19704427 -0.1933882
000230 16 85 2f 3e ac 74 cf b9 d5 ef 20 be 67 66 0e bd
       0.17140612 -0.00039569044 -0.15716489 -0.034765627
000240 b1 89 b0 3c 4f c4 5c 3d 3b e9 0e 3e 81 bb 38 be
       0.021550031 0.053898152 0.13956158 -0.18040277
000250 c1 70 7a 3e 0b 53 63 3e 5d fe 93 be 00 b3 91 be
       0.24457075 0.22199647 -0.28905 -0.2845688
000260 ad 54 ca bc 08 2b df bd a0 95 3e 3e d7 0f 0a 3d
       -0.02469858 -0.108968794 0.18611765 0.033706512
000270 62 1c a5 3d 67 c0 35 bd 33 8b 7f be 84 74 88 be
       0.08062054 -0.044372942 -0.24955444 -0.26651394
000280 23 a7 6a 3c e0 43 b1 3d 65 fa 48 3e 69 6c 5c be
       0.014322075 0.08655524 0.19626768 -0.2152573
000290 ab a5 bb 3d 4b 2f 17 be 06 d5 85 be 59 50 f4 3c
       0.09162458 -0.14764135 -0.26139086 0.029823469
0002a0 88 75 20 3d bc 07 da bd 12 1d 1d 3c 36 2f f4 3d
       0.039174587 -0.106460065 0.00958945 0.11923067
0002b0 45 ee 85 39 35 2b df 3d ec c5 50 bc 52 fc 1b bd
       0.0002554526 0.10896913 -0.012742501 -0.03808243
0002c0 49 2f 9f be c4 f7 b9 be 0e c1 5d 3e f7 2b 1f bd
       -0.31090763 -0.36321843 0.21655676 -0.038860288
0002d0 74 65 b7 bd 65 ac 83 3b b8 bf 90 be d6 97 48 be
       -0.089548975 0.0040183538 -0.2827127 -0.19589171
0002e0 a9 df 27 be c4 9c 96 3d 2d 7b 2a 3d 91 fd 03 bd
       -0.16393913 0.073541194 0.041621376 -0.03222424
0002f0 77 a1 69 3e eb 70 7c 3d 23 21 f6 bc b6 87 21 3e
       0.228155 0.061631124 -0.030045098 0.15774426
000300 d3 cf 02 3e 0e 0b 6a bc 7b b5 3b be c4 f8 63 be
       0.12774591 -0.014284862 -0.18330948 -0.22262865
000310 56 27 0a 3e 0b 1c 3f 3e 82 c9 96 3d 90 1d 5e 3e
       0.13491568 0.18663041 0.07362653 0.21690965
000320 fc e2 41 be 06 df 5f be f5 82 95 3d 24 55 54 3e
       -0.18934244 -0.2186242 0.07300369 0.20735604
000330 0c 04 30 be 1c b8 a0 bc 14 cb 0d bd bf d9 07 3e
       -0.17189044 -0.01961904 -0.0346175 0.13266657
000340 c7 77 0f be 37 34 4d be f2 8d e9 3d 19 cc 89 be
       -0.14010535 -0.2003945 0.11404027 -0.26913527
000350 86 07 4e be aa d7 b4 bd 93 f2 76 be a4 06 48 be
       -0.20120057 -0.08830197 -0.24115972 -0.19533783
000360 ba cf 79 be 68 e9 35 3e 7d c9 59 3e 4e fa 3b 3e
       -0.24395648 0.17764819 0.21268268 0.18357202
000370 f0 a4 8d be 14 c8 c1 3d b2 36 26 be 8b 08 e6 bd
       -0.276649 0.0946199 -0.16231802 -0.11232098
000380 ab bf 97 be e4 2a 1e bd 34 b1 09 be e3 b1 c8 3d
       -0.2963842 -0.038615122 -0.13446504 0.09799554
000390 68 51 39 be 26 f5 65 be 8d 78 05 3e 99 c5 da 3c
       -0.1809746 -0.22456798 0.13034268 0.02670555
0003a0 ec aa 7b be 7a 18 6a 3e 22 2c 5a be 68 1b 56 be
       -0.2457692 0.228609 -0.21305898 -0.20908892
0003b0 a0 82 27 be 34 04 fd bd ee d1 75 be 38 5c 97 bb
       -0.16358423 -0.12354317 -0.24005863 -0.0046191476
0003c0 73 6c 49 3d 40 e2 c4 3d 19 ce 79 be b4 8e 14 bd
       0.04917569 0.09613466 -0.24395026 -0.036268905
0003d0 4c 27 89 3e 9c 67 3b 3e 50 47 55 3c b3 23 1e 3d
       0.26787794 0.18301243 0.0130174905 0.038608264
0003e0 fd e7 21 3e c7 d3 68 3e 3c a6 81 be db a4 1f be
       0.15811153 0.22737037 -0.2532214 -0.15590231
0003f0 0c b0 4f be 48 52 2f 3d 8b 33 1e be d3 64 32 bd
       -0.20282 0.04280308 -0.1544935 -0.043553185

fc3.bias f4 [5]
000000 d3 ab 1d 3e 2f 80 db bb 11 01 9e bd 33 c3 07 bd
       0.15397577 -0.0066986303 -0.07715047 -0.03314514
000010 f3 df a3 3d
       0.08001699
